Model: "sequential"
_________________________________________________________________
Layer (type)                 Output Shape              Param #   
=================================================================
conv1d (Conv1D)              (None, 16, 128)           768       
_________________________________________________________________
lstm (LSTM)                  (None, 256)               394240    
_________________________________________________________________
dense (Dense)                (None, 128)               32896     
_________________________________________________________________
dense_1 (Dense)              (None, 64)                8256      
_________________________________________________________________
dense_2 (Dense)              (None, 20)                1300      
=================================================================
Total params: 437,460
Trainable params: 437,460
Non-trainable params: 0
_________________________________________________________________
